雷达仿真/知识星球/用于干扰源定位的图神经网络【附python代码】/experiments/trained_model_seed1_CAGE_polar_knn3_unit_sphere_1000noise_dynamic.pth (torch, 837654 bytes, 41 tensors)

gnn.convs.0.att_src f4 [1, 4, 32]
0	0xbe8458ce	-0.25849003
1	0xbcf091de	-0.02936643
2	0x3e5cf05e	0.21576068
3	0x3eb4463c	0.35209835
4	0x3d3dcce9	0.046337996
5	0xbe7de3cc	-0.24793929
6	0x3ed63603	0.41838083
7	0xbe60d39d	-0.21955724
8	0x3be877c2	0.0070943544
9	0x3d90a4c3	0.07062676
10	0xbe5d2481	-0.21595956
11	0x3eb33e6d	0.35008565
12	0x3c18e6df	0.009332388
13	0x3e56d347	0.20979033
14	0xbeac7b87	-0.33687994
15	0x3efb9618	0.4913795
16	0x3e2323fe	0.15931699
17	0xbe936800	-0.28790283
18	0x3ef545d1	0.47904828
19	0x3e9ef155	0.31043497
20	0xbce6fcd0	-0.028196722
21	0x3def6421	0.1168902
22	0x3eaa51d1	0.33265546
23	0xbeb27d10	-0.3486104
24	0xbedcfdb4	-0.4316231
25	0x3e07ac5b	0.13249342
26	0x3e8f7439	0.28018358
27	0x3ec753ad	0.38931027
28	0xbedc633a	-0.43044454
29	0xbdc4b49b	-0.0960476
30	0xbd8e498e	-0.06947623
31	0xbe415706	-0.18880853
32	0xbe613c8b	-0.21995752
33	0xbe9e5d87	-0.3093073
34	0x3f3849a6	0.7198738
35	0xbd221e65	-0.039579768
36	0x3e524f7a	0.2053813
37	0xbebd1b64	-0.3693496
38	0xbea3564f	-0.31901786
39	0x3eb3a120	0.35083866
40	0x3dbc8fea	0.09207137
41	0xbeb779ec	-0.35835207
42	0x3e8eb4ce	0.27872318
43	0xbf10fdfc	-0.5663755
44	0x3e5273cd	0.20551987
45	0xbed13b7b	-0.40865692
46	0x3f15e629	0.5855432
47	0xbb5407ab	-0.0032353203
48	0xbe04086a	-0.12893835
49	0xbf04566d	-0.51694375
50	0x3da94f0e	0.082670316
51	0xbe4b3357	-0.19843803
52	0x3e6303c9	0.22169413
53	0x3ea09e44	0.31370747
54	0x3ea5cfb4	0.32385027
55	0xbe6dc04d	-0.23217888
56	0xbe579108	-0.21051419
57	0xbc7640dc	-0.015030112
58	0xbecfb6b9	-0.40569094
59	0x3e9ca7fe	0.30596918
60	0x3ecc60f1	0.3991771
61	0x3e54efc6	0.20794591
62	0x3e5f27a6	0.21792468
63	0x3e16c0ff	0.1472206
64	0xbe28ac9b	-0.16472094
65	0x3de1f17c	0.110323876
66	0xbed4e647	-0.41581938
67	0x3e4d3103	0.20038228
68	0x3d4e0c7f	0.050304886
69	0x3e24a4b2	0.16078451
70	0x3eacf4e0	0.33780575
71	0xbeccfa4e	-0.40034717
72	0x3e05fcf7	0.1308478
73	0x3eb45b22	0.3522578
74	0xbf279c63	-0.65473
75	0xbd97634e	-0.07391988
76	0xbeab2397	-0.3342559
77	0x3c927ad2	0.01788083
78	0xbdc5c8e1	-0.09657455
79	0x3f22bac2	0.6356622
80	0xbf2e8f41	-0.6818734
81	0xbee3bf5d	-0.44481936
82	0x3e2d519d	0.16925664
83	0x3eb344c5	0.35013404
84	0x3ee74887	0.4517252
85	0x3ef95b34	0.48702395
86	0x3ebc935f	0.36831185
87	0x3ecb68ce	0.39728397
88	0xbeb2aec3	-0.34898958
89	0x3ea70a6c	0.3262514
90	0x3e755c44	0.23960978
91	0xbdc60da6	-0.09670572
92	0xbe357354	-0.17719775
93	0x3dff64a0	0.124703646
94	0x3ea33dfb	0.31883225
95	0xbeaad512	-0.33365685
96	0xbe3e3332	-0.18574217
97	0xbd6b1f95	-0.057403166
98	0x3ec7805a	0.38965112
99	0x3efe8f84	0.4971887
100	0x3ee76969	0.4519761
101	0xbe77d405	-0.24201973
102	0xbda97092	-0.08273424
103	0xbe243460	-0.16035604
104	0xbe633619	-0.22188605
105	0x3d063496	0.032764994
106	0x3f3b142a	0.7307764
107	0x3e8f63c0	0.2800579
108	0xbd3b636e	-0.04574912
109	0xbebee1a3	-0.37281522
110	0x3eacc2be	0.33742326
111	0x3d26d97b	0.04073475
112	0xbec20b02	-0.37899023
113	0x3f298814	0.66223264
114	0xbe274eb0	-0.1633861
115	0x3f18602f	0.59521765
116	0xbd445319	-0.04793081
117	0x3f00b9f5	0.5028375
118	0xbf18d8cc	-0.59705806
119	0xbef48158	-0.4775493
120	0xbecae29d	-0.39626017
121	0xbed4e53c	-0.41581142
122	0x3ea1f78e	0.31634182
123	0x3ebf3d8c	0.37351644
124	0xbe216b59	-0.15763606
125	0x3d05fa3e	0.032709353
126	0xbe0131da	-0.12616673
127	0xbd321c80	-0.04348421

gnn.convs.0.att_dst f4 [1, 4, 32]
0	0x3e2bfeda	0.16796437
1	0xbe5a69fd	-0.21329494
2	0xbe8d85de	-0.27641195
3	0x3ea22da3	0.31675443
4	0x3e3cef74	0.18450719
5	0x3e1ebb10	0.15501046
6	0x3e418b45	0.18900783
7	0xbe8c197b	-0.2736319
8	0xbcb51710	-0.022105724
9	0x3e3b2fbe	0.18279931
10	0x3ec43013	0.38317928
11	0x3c68744e	0.014187885
12	0x3e2fe2ca	0.17176357
13	0xbe9e77b7	-0.3095071
14	0x3daa153b	0.08304831
15	0xbe890683	-0.2676278
16	0x3e60bce2	0.21947053
17	0xbebdb4a2	-0.37051874
18	0x3c3ff0ee	0.011715157
19	0x3e2e8f3d	0.17046829
20	0xbe6caee2	-0.23113587
21	0x3df4badf	0.11949705
22	0x3e6daa41	0.23209478
23	0x3dcd8f93	0.1003715
24	0xbe1346e2	-0.14382508
25	0xbee030aa	-0.43787128
26	0x3e11afa8	0.14227164
27	0x3f016543	0.5054514
28	0x3e97dc6a	0.2966035
29	0x3e4adecc	0.19811553
30	0x3ebac54d	0.36478654
31	0x3cca2ef9	0.024680601
32	0x3e8660a7	0.26245615
33	0xbdc5920c	-0.09646997
34	0x3e8ef711	0.27922872
35	0xbe584e44	-0.21123606
36	0x3d3fee35	0.04685803
37	0x3eb14642	0.34623915
38	0x3e48bab8	0.19602478
39	0xbeb7fe87	-0.35936376
40	0xbd45fe1f	-0.048338052
41	0x3e242d29	0.16032852
42	0xbe7c169a	-0.24617997
43	0xbe05dce3	-0.13072543
44	0xbe871351	-0.26381925
45	0xbe4ccd75	-0.2000025
46	0xbe4a1d53	-0.19737749
47	0x3d10034a	0.035159387
48	0x3deab6b6	0.114606306
49	0x3e047b37	0.12937628
50	0xbe508053	-0.20361452
51	0xbe62e44d	-0.22157402
52	0x3c65a231	0.01401572
53	0x3e3823f7	0.1798247
54	0xbdb326c4	-0.08747628
55	0xbe6b8189	-0.22998632
56	0xbe3d00ae	-0.1845729
57	0xbdf1d63d	-0.11808441
58	0x3ec61631	0.38688806
59	0x3ee89f34	0.45433962
60	0xbdf3d3e9	-0.11905653
61	0x3f047c91	0.51752573
62	0x3e494e47	0.19658767
63	0xbd84bf8b	-0.064818464
64	0xbe9f446d	-0.31106892
65	0x3df04655	0.11732165
66	0xbc9f617a	-0.01945566
67	0xbdc382dd	-0.095464446
68	0x3ed261ac	0.41090143
69	0xbe8eed91	-0.27915624
70	0xbd1fe1c9	-0.039033685
71	0x3d61958d	0.055074263
72	0x3c86ed8a	0.01647069
73	0xbe8efd8d	-0.2792782
74	0x3e4b3edb	0.19848196
75	0x3e84d2ea	0.25942165
76	0xbc15c989	-0.009142288
77	0xbd1edc6d	-0.038784433
78	0x3e3b2aa8	0.18277991
79	0x3ee638ac	0.44965112
80	0xbe9ba58d	-0.30399743
81	0xbe6a8abc	-0.22904485
82	0xbf064bc1	-0.5245934
83	0xbe8d9d96	-0.2765929
84	0xbc8ed3dc	-0.017435007
85	0x3e044f51	0.12920882
86	0xbe725b49	-0.23667635
87	0x3e55487c	0.20828432
88	0x3e92b43c	0.28653133
89	0x3d169df5	0.036771733
90	0xbe8aa60c	-0.2707981
91	0xbe4730c9	-0.19452204
92	0xbda7e4fb	-0.081979714
93	0x3c2abf5e	0.010421602
94	0x3ed266fc	0.41094196
95	0xbd534dd1	-0.051587883
96	0x3df12056	0.11773746
97	0x3ee4c20f	0.44679305
98	0x3d11cda1	0.035596494
99	0x3d362451	0.044468228
100	0xbe105b22	-0.14097264
101	0xbe353a3a	-0.17697993
102	0x3de288da	0.110612586
103	0x3ee78fd8	0.45226932
104	0xbf19a8b8	-0.6002307
105	0x3e52c1c5	0.2058173
106	0x3df76c99	0.1208126
107	0xbef867a6	-0.48516577
108	0xbe93054d	-0.28714982
109	0x3e9fa365	0.31179348
110	0xbdbeaf15	-0.09310738
111	0xbd781e74	-0.060575917
112	0xbe35dbe2	-0.1775966
113	0x3e140043	0.14453225
114	0xbc803cf1	-0.01565406
115	0xbea10eed	-0.314567
116	0x3e2bb5b3	0.16768532
117	0xbd8983e1	-0.06714607
118	0x3e8adc54	0.27121222
119	0x3e211a39	0.1573266
120	0xbe948a67	-0.29011843
121	0x3e22cdc7	0.1589881
122	0x3e8a1b14	0.26973784
123	0xbeeaf600	-0.45890808
124	0x3c9d00ee	0.019165482
125	0xbe677f81	-0.22607233
126	0x3eb33756	0.35003155
127	0xbf07d21a	-0.53054965

gnn.convs.0.bias f4 [128]
0	0x3ccd06b8	0.025027618
1	0xbd3e199d	-0.046411145
2	0xbbe44c74	-0.0069671217
3	0x3bac7bb0	0.005263768
4	0xbcbf9bac	-0.02338966
5	0x3c58712f	0.013210579
6	0x3cd4dbca	0.02598371
7	0x39e6f9b7	0.0004405507
8	0xbcbae1d2	-0.022812758
9	0xbd7d7468	-0.06187859
10	0x3bff5640	0.007792264
11	0x3ccf8520	0.025332034
12	0xbcd0fd9b	-0.025511554
13	0xbcd14d34	-0.025549509
14	0x3d30052e	0.04297369
15	0x3c3de690	0.011590615
16	0x3be510db	0.0069905347
17	0xbc519e48	-0.012794085
18	0x3c60be70	0.013717279
19	0xbc5b5026	-0.013385808
20	0x3d24eec5	0.04026677
21	0x3ce9f7bd	0.028560514
22	0xbc20a5b4	-0.009805132
23	0x3caa287e	0.020771261
24	0x3c951e85	0.01820303
25	0xbc5be805	-0.013422017
26	0x3c5b6dbd	0.013392863
27	0x3c825f13	0.015914476
28	0x3c864360	0.016389549
29	0xbb1a7493	-0.0023568019
30	0xbcf687db	-0.030094078
31	0xbca88353	-0.020570433
32	0x3d387425	0.04503264
33	0x3c4e1b0d	0.012579692
34	0xbc96ae76	-0.018393736
35	0xbbdd119e	-0.006746485
36	0x3cb00728	0.021487787
37	0x3d0b3a9e	0.03399145
38	0xbd56e592	-0.05246503
39	0x3cac2f5b	0.021018675
40	0x3cbfae1d	0.023398453
41	0xbcda43e0	-0.026643693
42	0x3cc38719	0.02386813
43	0x3cbea285	0.023270855
44	0xbd848a9e	-0.06471752
45	0xbd1b2173	-0.037873697
46	0x395b808f	0.0002093336
47	0x3bbbc5f4	0.005730385
48	0xbc1c632d	-0.00954513
49	0x3c1ecbc1	0.009692133
50	0xbd08e1bd	-0.033418406
51	0xbd121db8	-0.035672873
52	0xbb52f176	-0.003218738
53	0xbd00f06e	-0.03147929
54	0x3c84c2e5	0.016206214
55	0xba508464	-0.0007954298
56	0x3c9196ff	0.017772196
57	0xbc2a98ae	-0.010412378
58	0xbd000d11	-0.03126246
59	0xbaed65d1	-0.0018112009
60	0x3cdc06b8	0.026858672
61	0xbd67e4f0	-0.056614816
62	0xbd6fad2a	-0.05851475
63	0x3b16b69d	0.002299703
64	0x3aed68a3	0.0018112849
65	0xbd07e8c3	-0.033180963
66	0xbb98e683	-0.004666151
67	0xbc862190	-0.016373426
68	0x3c81af44	0.015830643
69	0xbcbdd0c8	-0.023170844
70	0x3d967ff1	0.07348622
71	0xbc744fba	-0.014911586
72	0xbbd201bd	-0.0064088986
73	0xbc466344	-0.012108628
74	0xbce9d317	-0.028543038
75	0x3bebed2d	0.0071999044
76	0xbc6609a8	-0.014040388
77	0x3ac151de	0.001474913
78	0x3a8384d1	0.0010034089
79	0xbb5dc31a	-0.0033838213
80	0xbc2b5925	-0.010458265
81	0x39cb9aae	0.00038834423
82	0x3c58d52a	0.013234416
83	0xbd0f0ae2	-0.034922488
84	0x3d6c5e09	0.057706866
85	0x3b51372b	0.0031923752
86	0xbcb8054f	-0.022463469
87	0xbc5f1db4	-0.013617922
88	0xbccce68c	-0.025012277
89	0x3d2f05d8	0.042730182
90	0xbce89a4f	-0.028393893
91	0xbb5df504	-0.0033867965
92	0xbc59284b	-0.0132542355
93	0xbcbf5691	-0.023356708
94	0x3bc77d11	0.006087907
95	0x3bc93441	0.0061402624
96	0xbc937489	-0.017999904
97	0xbc77b8f9	-0.0151197845
98	0xbb985b0a	-0.0046495246
99	0xbc55461d	-0.013017205
100	0xbd21b43d	-0.03947853
101	0x3c5a3d3c	0.0133202635
102	0xbd14084e	-0.036140732
103	0xbcc44ce5	-0.023962447
104	0x3d1de42c	0.03854768
105	0x3cafcdbf	0.021460412
106	0x3c345792	0.0110072065
107	0xbc9edbed	-0.019391978
108	0xbcaaac7f	-0.020834206
109	0xbbf04f31	-0.007333659
110	0xbc649367	-0.013951159
111	0x3a808d67	0.0009807766
112	0xbc1fde82	-0.00975764
113	0x3c4639d5	0.012098749
114	0xbbec45fe	-0.007210492
115	0x3c5f49d9	0.0136284465
116	0x3a8dd1fc	0.0010820027
117	0xbc2776dc	-0.010221209
118	0xba916694	-0.0011093193
119	0xbb6f080a	-0.0036473298
120	0x3cdd9bbb	0.027051797
121	0x3ba3d406	0.0049996404
122	0xbcfe3e99	-0.031035708
123	0xbbc5f6aa	-0.0060413675
124	0xbb20b4af	-0.0024521758
125	0xbbb25cc4	-0.0054431874
126	0xbcd519da	-0.026013304
127	0x3b003dde	0.0019568126

gnn.convs.0.lin.weight f4 [128, 22]
0	0xbe670411	-0.22560145
1	0xbe0cd8fd	-0.1375465
2	0xbce37a52	-0.027768288
3	0xbd8c2278	-0.06842512
4	0xbdcaac42	-0.09896137
5	0xbcb676a0	-0.022273362
6	0xbe00dd1f	-0.12584351
7	0x3e27c9e8	0.16385615
8	0xbd53e232	-0.05172939
9	0x3e1a5e46	0.15075025
10	0x3e29bfd1	0.16577078
11	0x3ddf4527	0.10901862
12	0xbceabd06	-0.028654587
13	0x3e68f253	0.2274869
14	0x3ee7d018	0.4527595
15	0x3eac6ac7	0.33675215
16	0x3e1a678d	0.15078564
17	0x3e281063	0.16412501
18	0x3de11fc5	0.10992388
19	0xbe05178a	-0.1299726
20	0xbe3f1478	-0.18660152
21	0x3e5e34b3	0.2169979
22	0xbe125610	-0.14290643
23	0xbe5f0672	-0.21779802
24	0x3e4c255e	0.1993613
25	0xbe4abfe2	-0.1979976
26	0x3c41f3d9	0.011837923
27	0x3e1f8ff4	0.15582258
28	0xbdbd593d	-0.092455365
29	0xbd53bf63	-0.051696192
30	0x3df3b159	0.11899061
31	0x3de25430	0.11051214
32	0x3d4c4f82	0.049880512
33	0xbd37e7a0	-0.04489863
34	0x3db2a870	0.08723533
35	0xbe278e1c	-0.16362804
36	0x3c923753	0.017848646
37	0xbc80756a	-0.015680987
38	0x3e176983	0.14786343
39	0x3d4f4431	0.05060214
40	0xbe946437	-0.28982708
41	0xbcf61aba	-0.030042041
42	0xbe6e382c	-0.23263615
43	0xbe726907	-0.23672877
44	0x3db09f49	0.08624131
45	0x3ddecf0e	0.10879336
46	0x3d0934c5	0.03349759
47	0xbdefb170	-0.117037654
48	0x3cb0c9bb	0.021580568
49	0xbe27d1a8	-0.16388571
50	0x3d1dab60	0.038493514
51	0xbd287f73	-0.04113717
52	0xbe17c297	-0.14820324
53	0xbe0be57d	-0.13661762
54	0xbd6033e3	-0.054736983
55	0x3de416e8	0.111371815
56	0x3e46710e	0.19379064
57	0x3d304d97	0.043042745
58	0xbe377f28	-0.179196
59	0xbdd4f611	-0.10398496
60	0xbdf74bd4	-0.1207501
61	0xbe0c8abb	-0.13724796
62	0xbe3408e1	-0.17581512
63	0x3e15cbe5	0.14628561
64	0x3e646ba6	0.2230669
65	0x3ea37530	0.31925344
66	0x3d20174c	0.039084718
67	0x3da1310b	0.07870682
68	0x3da70625	0.08155469
69	0x3da3d5f9	0.079997964
70	0xbcbd72ae	-0.023125973
71	0xbea2845b	-0.31741604
72	0xbe0683be	-0.13136193
73	0x3e1087be	0.14114282
74	0x3e11304c	0.1417858
75	0xbe7fa7b8	-0.24966323
76	0xbc1268a0	-0.008936077
77	0xbdcc16f7	-0.09965318
78	0xbdcfa0cc	-0.101380914
79	0xbe831db5	-0.25608602
80	0xbe983cd7	-0.29733917
81	0x3e0bd04a	0.13653675
82	0xbe0fdce8	-0.14049113
83	0xbddffdab	-0.10937055
84	0xbdc55efe	-0.09637259
85	0xbc10994f	-0.008825614
86	0x3ebb75d5	0.36613336
87	0xbe0c77f8	-0.1371764
88	0xbd888bb2	-0.0666727
89	0x3d7404ea	0.059575
90	0xbe70d6e4	-0.23519474
91	0x3e1adaad	0.1512248
92	0xbe5a5851	-0.21322753
93	0xbe3567a2	-0.17715314
94	0xbda860ed	-0.08221612
95	0x3d0dc0ee	0.03460782
96	0x3e03b5aa	0.12862268
97	0x3d219f28	0.039458424
98	0x3e2f6fe3	0.17132525
99	0xbca1d820	-0.019756377
100	0x3e3cc8a1	0.18435909
101	0xbd388ed2	-0.04505808
102	0xbe60b9fc	-0.21945947
103	0xbdad4fef	-0.08462512
104	0x3e0ad435	0.13557513
105	0xbc645bca	-0.0139379
106	0xbd6614a2	-0.05617202
107	0xbd7fcc7c	-0.06245087
108	0xbde79fd0	-0.11309779
109	0x3d82aa13	0.06380095
110	0xbd49ebbf	-0.04929709
111	0x3ca4370e	0.020045783
112	0x3e06e90a	0.13174835
113	0x3caec15a	0.021332432
114	0xbe58950e	-0.2115061
115	0xbde47e66	-0.11156921
116	0x3c14aa59	0.009073817
117	0xbd826b8a	-0.06368168
118	0xbe954b9e	-0.29159254
119	0xbd6b5596	-0.057454668
120	0xbdea69af	-0.11445939
121	0xbd91e76d	-0.07124219
122	0x3dddf936	0.10838549
123	0xbd4084d7	-0.047001686
124	0xbdeccb17	-0.11562174
125	0x3e0ec66c	0.1394288
126	0x3e5aec40	0.21379185
127	0x3c0ac206	0.00846911
128	0xbeb0c03f	-0.34521672
129	0xbe8249cf	-0.25446936
130	0xbe08f5de	-0.13375041
131	0x3e29f4bc	0.16597265
132	0x3dbe8ca9	0.093041725
133	0x3ddfccc5	0.109277286
134	0xbbd4c7f6	-0.0064935638
135	0xbd0ddb27	-0.034632828
136	0xbdd89278	-0.10574812
137	0xbe1393d0	-0.14411855
138	0xbdebedea	-0.11519988
139	0xbd4b1057	-0.04957613
140	0xbde722b1	-0.11285914
141	0xbe4452da	-0.1917223
142	0x3e5742b8	0.21021545
143	0x3cf2e495	0.029650012
144	0x3e2bb693	0.16768865
145	0xbe51d298	-0.20490491
146	0xbe1099b2	-0.1412113
147	0x3dfc17d7	0.123092346
148	0xbd8286b0	-0.06373346
149	0x3de3d522	0.11124636
150	0x3d377b38	0.044795245
151	0x3e04a4cc	0.1295349
152	0x3c17f963	0.009275767
153	0x3d7de461	0.061985377
154	0xbe4186d9	-0.18899097
155	0x3e27c2e9	0.16382946
156	0xbe292626	-0.16518459
157	0x3e60f112	0.21966961
158	0x3c878332	0.016542051
159	0xbe0429b0	-0.12906528
160	0xbe0ad6b7	-0.1355847
161	0x3d09589f	0.03353178
162	0xbe058245	-0.13037975
163	0x3d711092	0.058853693
164	0x3dfeed1f	0.12447571
165	0x3e473e6c	0.19457406
166	0xbe3067f1	-0.1722715
167	0xbdd1935d	-0.102331854
168	0xbe042fa5	-0.129088
169	0xbd9f561d	-0.07780097
170	0x3a38323e	0.00070265296
171	0x3e1cdc2b	0.15318362
172	0x3dfb6ef3	0.12277021
173	0xbe12099b	-0.14261477
174	0x3ed20246	0.4101736
175	0x3da24ac0	0.07924414
176	0xbdd1bf66	-0.102415845
177	0xbe5004eb	-0.20314376
178	0xbd3d4921	-0.04621232
179	0xbe57fb56	-0.21091971
180	0x3dbc0dbd	0.09182308
181	0x3d98c666	0.074597165
182	0x3c327c92	0.010893958
183	0xbde48502	-0.11158182
184	0x3e5570ee	0.2084386
185	0xbe759bbc	-0.23985189
186	0xbd043176	-0.032273732
187	0x3dfe05b9	0.12403435
188	0xbd8341ba	-0.06409021
189	0x3cd47e6d	0.02593919
190	0xbe6f0800	-0.23342896
191	0xbd239ea4	-0.039946213
192	0xbc89dd95	-0.016829291
193	0x3e1d68e0	0.15372038
194	0x3d31d669	0.043417368
195	0xbc67cc59	-0.014147841
196	0xbe5d0a24	-0.215859
197	0x3bb27f70	0.0054473206
198	0x3d14419f	0.036195394
199	0xbd495524	-0.049153462
200	0x3e477d4a	0.19481388
201	0xbe0afec8	-0.13573754
202	0xbd09a714	-0.033606604
203	0x3d729dcf	0.05923253
204	0x3db0451c	0.086069316
205	0x3d2ddcf0	0.04244703
206	0xbd43e895	-0.04782923
207	0x3dceb0f0	0.10092342
208	0x3d6c681d	0.057716478
209	0x3e0b90c6	0.13629445
210	0x3dff197f	0.12456035
211	0x3c0fc1a0	0.008774191
212	0xbcdad403	-0.026712423
213	0xbde6ab19	-0.11263103
214	0x3dee4312	0.116338864
215	0xbe4faf32	-0.20281675
216	0x3dd2b615	0.10288636
217	0xbce57b03	-0.028012758
218	0xbe2f09da	-0.17093602
219	0x3d1eaa97	0.038736906
220	0xbe45ccba	-0.19316378
221	0x3ddc2aad	0.10750327
222	0xbe3d6e92	-0.1849921
223	0xbe6a5862	-0.22885278
224	0xbd9fb39a	-0.07797928
225	0xbde55014	-0.11196914
226	0x3df25984	0.1183348
227	0xbdbcf900	-0.092271805
228	0xbe7103fe	-0.23536679
229	0xbcc93e5d	-0.02456587
230	0x3d072140	0.032990694
231	0x3e05223a	0.13001338
232	0x3e473a37	0.19455801
233	0xbd8c7e29	-0.06860001
234	0x3e299338	0.16560066
235	0xbda75372	-0.08170213
236	0xbe0df6dd	-0.13863702
237	0x3e43220e	0.1905596
238	0xbef0089e	-0.46881574
239	0xbe377535	-0.17915805
240	0x3de213b4	0.11038914
241	0xbe861ff3	-0.2619625
242	0xbbca3af9	-0.006171581
243	0x3d3abd90	0.045590937
244	0x3d92a4b1	0.07160319
245	0xbdb3caee	-0.0877894
246	0xbc40f59b	-0.011777307
247	0xbeacd3d2	-0.33755356
248	0xbe103923	-0.14084296
249	0x3d71d783	0.05904342
250	0x3ccd6ccf	0.025076298
251	0xbe8f573e	-0.27996248
252	0xbcbe3732	-0.023219679
253	0x3c8ef4a7	0.017450644
254	0xbe01120f	-0.12604545
255	0x3d7df205	0.061998386

gnn.convs.1.att_src f4 [1, 4, 32]
0	0xbe7b0d94	-0.24516898
1	0x3dbdbce0	0.09264541
2	0xbe17c150	-0.14819837
3	0x3eef7fb8	0.4677713
4	0xbea24e44	-0.31700337
5	0x3e329164	0.17438275
6	0xbb00ca67	-0.0019651891
7	0x3e5e081f	0.21682785
8	0x3d9347ef	0.071914546
9	0xbe35087a	-0.17679015
10	0xbe125c84	-0.14293104
11	0x3b872558	0.004124325
12	0x3ed3f994	0.4140135
13	0x3d887550	0.066630006
14	0x3ea0481b	0.31305012
15	0x3ec295c0	0.38004875
16	0x3becbfe6	0.0072250245
17	0xbedde402	-0.4333802
18	0x3ea9335a	0.3304699
19	0x3ebd52d1	0.36977246
20	0x3f13889b	0.5763032
21	0xbe69eb9e	-0.22843787
22	0x3d87d80c	0.066330045
23	0x3ee29524	0.4425441
24	0xbe716a5b	-0.23575728
25	0x3f2490b4	0.642833
26	0x3deda664	0.11604002
27	0xbf00fa41	-0.5038186
28	0x3da9a855	0.0828406
29	0x3e70c06f	0.23510908
30	0x3d9a20a8	0.0752576
31	0x3cea6508	0.028612629
32	0xbdf45879	-0.11930937
33	0x3c10b064	0.008831117
34	0x3e0154f5	0.12630065
35	0x3cbebd08	0.023283496
36	0xbea4165d	-0.32048312
37	0x3e9ff6ed	0.31243077
38	0xbe7ff3e1	-0.24995376
39	0xbe6d10bb	-0.23150913
40	0xbea21736	-0.31658334
41	0xbb8c5443	-0.0042825057
42	0xbb2d8fe1	-0.0026483464
43	0x3cf58432	0.029970262
44	0x3e9d5eef	0.3073649
45	0x3e8a0c5c	0.26962554
46	0x3e5d8f7c	0.21636766
47	0x3e428502	0.18996051
48	0x3e09f4fa	0.13472357
49	0xbe299b91	-0.1656325
50	0x3eae5f8c	0.3405727
51	0x3da9f238	0.08298153
52	0xbeb945e4	-0.36186135
53	0xbe6c65e0	-0.23085737
54	0x3d551ec0	0.05203128
55	0x3ed5baac	0.41743982
56	0xbe814582	-0.25248343
57	0xbe055a1a	-0.13022652
58	0xbd879260	-0.06619716
59	0x3ebff96d	0.37494984
60	0xbe67cc3f	-0.22636507
61	0x3ea1a237	0.31569073
62	0xbeb1dbe9	-0.3473809
63	0xbdb44bba	-0.08803506
64	0xbe3bff5c	-0.1835913
65	0x3e994326	0.29934043
66	0xbe43e619	-0.19130744
67	0x3ed6949d	0.41910258
68	0x3eb7a654	0.35869086
69	0xbd2b499c	-0.041818246
70	0x3e853b29	0.26021698
71	0x3cf22872	0.029560301
72	0xbe998010	-0.29980516
73	0xbe9e8a42	-0.30964857
74	0xbea17eba	-0.31541997
75	0x3e5da242	0.21643928
76	0xbe10a85e	-0.14126727
77	0xbe0363b0	-0.12830997
78	0xbe2c2f5e	-0.16814944
79	0xbdacd7f2	-0.08439626
80	0x3d98544f	0.074379556
81	0x3c9f39d0	0.019436747
82	0xbe2c001d	-0.16796918
83	0x3dd1ea72	0.10249795
84	0xbe88cf65	-0.2672073
85	0x3ee139d3	0.4398943
86	0xbeafae77	-0.34312794
87	0xbbeff761	-0.007323191
88	0x3ee18520	0.4404688
89	0xbc7407fa	-0.01489448
90	0x3ec9c2f2	0.39406544
91	0x3f1768ad	0.591441
92	0x3ebc1dbd	0.36741439
93	0xbec6a946	-0.3880102
94	0x3ea3ce2c	0.31993234
95	0x3ed3a2c0	0.41335106
96	0xbc957156	-0.01824252
97	0x3f02ef6b	0.5114657
98	0x3edb73c7	0.4286177
99	0x3e4c1314	0.19929153
100	0x3e38b12d	0.18036337
101	0x3eea171e	0.45720762
102	0xbef3cf8f	-0.47619292
103	0xbe927f12	-0.28612572
104	0xbe41b300	-0.1891594
105	0x3d5945ee	0.053045206
106	0x3ec55fa6	0.38549536
107	0x3db699c6	0.08916049
108	0xbe5ad39b	-0.21369784
109	0x3c512bb1	0.0127667645
110	0xbe74c25a	-0.23902264
111	0x3ed02660	0.40654278
112	0x3cb292b9	0.021798478
113	0x3e49a282	0.19690898
114	0x3dba118d	0.09085379
115	0xbc25323d	-0.0100827785
116	0x3d0b53a0	0.034015298
117	0xbcd722e5	-0.026261756
118	0xbd508423	-0.050907265
119	0xbe11e082	-0.14245799
120	0x3c8b92b9	0.017037736
121	0x3eccfd51	0.40037015
122	0x3f0481e7	0.51760715
123	0xbd79ef78	-0.06101939
124	0xbeb43aaf	-0.35201022
125	0xbe1a7a57	-0.15085731
126	0x3ee13aa7	0.4399006
127	0xbf0befba	-0.5466267

gnn.convs.1.att_dst f4 [1, 4, 32]
0	0xbdf42348	-0.11920792
1	0x3f0281e2	0.50979435
2	0xbe527bd2	-0.20555046
3	0xbd98852b	-0.07447275
4	0xbe80c6cb	-0.25151667
5	0x3e0e4eea	0.13897291
6	0x3e850a6f	0.25984523
7	0xbea76b6b	-0.3269914
8	0xbed0fb0a	-0.40816528
9	0xbe2b669a	-0.16738358
10	0x3c804aec	0.015660726
11	0xbe9190d7	-0.28430817
12	0x3d49b164	0.04924144
13	0xbdaeefd3	-0.085418366
14	0xbca55993	-0.020184314
15	0xbe976572	-0.29569584
16	0xbccb56bb	-0.02482163
17	0xbeda4c58	-0.4263637
18	0xbea5c54d	-0.3237709
19	0x3dd0cc93	0.101952694
20	0xbe2d864d	-0.16945763
21	0x3ef0943c	0.46988094
22	0xbdb35e28	-0.08758193
23	0xbe4741a8	-0.1945864
24	0xbea158f5	-0.3151318
25	0xbe1320d6	-0.14367995
26	0xbe524f43	-0.20538048
27	0x3d5c3bd8	0.05376801
28	0xbe64dd7f	-0.22350119
29	0x3e3a1fec	0.1817624
30	0x3e96ef0e	0.2947926
31	0x3e103dab	0.14086024
32	0x3e99991e	0.29999632
33	0xbca25143	-0.01981414
34	0xbe008c0f	-0.12553428
35	0xbe292f08	-0.16521847
36	0xbe80a22c	-0.25123727
37	0x3d83d942	0.06437923
38	0x3c8c1fa9	0.01710494
39	0x3e1e824c	0.15479392
40	0x3e9a0995	0.30085436
41	0x3c056194	0.00814094
42	0xbe0d3dcd	-0.13793106
43	0xbdece223	-0.1156657
44	0xbeb049db	-0.34431347
45	0xbc666456	-0.014062008
46	0xbeaf6bb2	-0.34261853
47	0x3cc235eb	0.02370735
48	0x3e8a3c35	0.2699906
49	0xbee28fa4	-0.44250214
50	0xbca2a0f7	-0.019852145
51	0xbe701f06	-0.23449335
52	0x3e23767d	0.15963168
53	0xbec65074	-0.38733256
54	0x3eb19da9	0.34690598
55	0xbf04730a	-0.51738036
56	0xbd8f0dcc	-0.069850534
57	0x3d98e5b4	0.074656874
58	0x3cf0a4e2	0.029375497
59	0xbe0227b1	-0.12710454
60	0x3ececd4e	0.4039101
61	0xbe4bccdd	-0.19902368
62	0x3d52b6e3	0.051443946
63	0xbd3386cd	-0.043829728
64	0x3e42792d	0.18991537
65	0xbda46a06	-0.08028035
66	0x3df6ac9b	0.12044641
67	0x3e7da5c5	0.24770267
68	0xbe9c3e65	-0.30516353
69	0xbe44266c	-0.19155282
70	0x3de47576	0.111552164
71	0xbcd52606	-0.026019108
72	0xbe8e8c39	-0.27841356
73	0x3ebce226	0.36891288
74	0xbe254580	-0.16139793
75	0x3e349926	0.17636546
76	0x3d134782	0.035956867
77	0x3eceaf05	0.40367904
78	0x3dccd205	0.100009955
79	0x3e55e65e	0.2088866
80	0x3e75090c	0.23929232
81	0x3ea4ffab	0.3222631
82	0x3d8f5206	0.069980666
83	0x3e927145	0.28602043
84	0xbe838f51	-0.2569528
85	0x3e71ce30	0.2361381
86	0xbcda3b2f	-0.026639549
87	0x3e515ed0	0.20446324
88	0x3e17305c	0.14764541
89	0x3e058284	0.13038069
90	0xbec65025	-0.3873302
91	0x3e923844	0.28558552
92	0xbca7e34f	-0.020494131
93	0xbefa27cb	-0.48858485
94	0x3e4ba81e	0.1988835
95	0x3ee4a887	0.44659826
96	0x3e8aa7f8	0.27081275
97	0x3c1669a3	0.009180459
98	0x3e81b200	0.25331116
99	0x3ed15cec	0.40891206
100	0xbe08acb1	-0.13347127
101	0x3ee1c702	0.44097143
102	0x3e88dfd6	0.26733273
103	0xbe4c7a47	-0.1996852
104	0x3ec89675	0.3917729
105	0x3e33aa31	0.17545392
106	0xbebad1ba	-0.36488134
107	0xbece9166	-0.40345305
108	0x3e64f295	0.22358163
109	0xbd76228e	-0.060091548
110	0x3dfb8413	0.122810505
111	0xbe46b258	-0.1940397
112	0x3e852cd1	0.26010755
113	0x3e7a4428	0.24440062
114	0xbeb1f386	-0.34756106
115	0xbed7b3ec	-0.42129457
116	0x3e2468ff	0.16055678
117	0xbdd311a6	-0.103061005
118	0xbee0a3eb	-0.4387506
119	0xbeaf0759	-0.34185293
120	0x3d073f7d	0.03301953
121	0x3ebe84c3	0.37210664
122	0x3d193973	0.037408303
123	0x3ecd127a	0.4005316
124	0x3cf6da47	0.03013338
125	0xbda55d67	-0.08074456
126	0xbe375ea4	-0.17907196
127	0xbd9f3bc2	-0.0777507

gnn.convs.1.bias f4 [128]
0	0xbd270602	-0.040777214
1	0xbc0f421b	-0.008743788
2	0xbc35a637	-0.011086992
3	0xbd2c09c5	-0.042001504
4	0xba9c2fbc	-0.0011916081
5	0xbc293509	-0.010327586
6	0xbcd76da1	-0.026297392
7	0x3c8f58eb	0.017498454
8	0xbc689a85	-0.014196997
9	0x3bf0ec14	0.0073523615
10	0xbca46672	-0.020068381
11	0xbcb311a6	-0.021859001
12	0x3cae77e3	0.0212974
13	0x3cfe3b47	0.031034125
14	0x3c566aa6	0.01308695
15	0x3bd013bb	0.0063500083
16	0xbc7e1cd4	-0.015509803
17	0xbbd1654f	-0.0063902508
18	0xbc32e2ac	-0.010918301
19	0xbce3025f	-0.027711092
20	0xbcd4df49	-0.025985377
21	0xbbabe9de	-0.005246385
22	0xbbb05f2a	-0.005382438
23	0x3b56bb12	0.0032765311
24	0x3c4e649f	0.012597232
25	0xbce5da58	-0.028058216
26	0x3b73372a	0.0037111738
27	0xbc38dbbe	-0.011282859
28	0xbc907854	-0.017635502
29	0x3d14db96	0.036342226
30	0x3c876da6	0.016531777
31	0x3cdd03e8	0.026979402
32	0xbc18308c	-0.009288918
33	0xbc3c5608	-0.011495121
34	0x3bd8aaa8	0.0066121407
35	0x3d07998d	0.03310542
36	0xbbe22d3e	-0.006902366
37	0x3c233a3a	0.009962613
38	0xbc33738c	-0.0109528415
39	0xbb9d3315	-0.004797349
40	0xbd6c09fe	-0.057626717
41	0x3c427e92	0.011870997
42	0xbb746623	-0.0037292324
43	0xbc90a524	-0.01765687
44	0x3b668543	0.0035174645
45	0xbc5d75f3	-0.013516891
46	0xbc2c0348	-0.010498829
47	0xbb1578be	-0.0022807564
48	0x3cba6447	0.022752894
49	0xbd1e462a	-0.038641132
50	0xbbb7c77f	-0.0056084986
51	0xbc4578e2	-0.0120527465
52	0xbd45202f	-0.048126396
53	0x3b7fb50d	0.0039017827
54	0x3ac2e0fa	0.0014868074
55	0x3d02358a	0.03178934
56	0xbc435fb6	-0.011924675
57	0xbcf16bfd	-0.029470438
58	0xbb5a3c50	-0.003330011
59	0xbb357d67	-0.0027693154
60	0xbca8c330	-0.020600885
61	0xbd0451c6	-0.032304548
62	0xbd0516f4	-0.032492593
63	0x3c97a453	0.018510973
64	0x3cc1653d	0.023607844
65	0xbcfe88c1	-0.031071069
66	0x3cd7269c	0.026263528
67	0xbc98845f	-0.018617807
68	0x3cf67ac7	0.030087842
69	0xbb6398bc	-0.0034728488
70	0xbd080144	-0.033204332
71	0x3c94dcc5	0.018171677
72	0x3c8fa4c3	0.01753462
73	0x3ba919bf	0.00516054
74	0x3c695713	0.0142419515
75	0xbc8e28ec	-0.017353497
76	0x3cb4d85a	0.02207582
77	0x3c8b4a45	0.017003188
78	0xbd232b55	-0.039836247
79	0x3c2f5310	0.010700956
80	0xbd1072c4	-0.0352657
81	0xbcb6b95a	-0.02230518
82	0x3b16bd03	0.0023000843
83	0x3c14326e	0.0090452265
84	0xbcd68016	-0.026184123
85	0xbb92b171	-0.004476719
86	0xbccfdddb	-0.025374344
87	0xbc1aeee1	-0.009456367
88	0xbbccb436	-0.0062470688
89	0xbc7a5848	-0.015279837
90	0xbcd05196	-0.025429528
91	0x3d2b59f2	0.041833825
92	0xbbacd6f4	-0.005274648
93	0xbc0e3b8d	-0.00868119
94	0x3a9d4804	0.0011999612
95	0x3c8d8e1f	0.017279683
96	0xbbdc9e74	-0.0067327563
97	0xbc17aae3	-0.009257051
98	0xbcbb9624	-0.022898741
99	0x3be5033a	0.00698891
100	0x3ce7934b	0.028268477
101	0x3c380d66	0.011233663
102	0xbcd4501a	-0.025917102
103	0xbc2b0126	-0.0104372855
104	0x3c95db09	0.01829292
105	0x3c5fc0cb	0.013656805
106	0xbc953a26	-0.018216204
107	0x3cbb9d33	0.022902107
108	0x3b785029	0.0037889576
109	0xbc05f65f	-0.008176415
110	0x3cb2dd41	0.021834018
111	0xbc050473	-0.008118737
112	0xbc69fee6	-0.014281964
113	0x3b75cbcc	0.0037505506
114	0xbc5135df	-0.0127691915
115	0x3ce44d3d	0.027868861
116	0x3cce8c7a	0.025213469
117	0x3b9716c1	0.004610867
118	0xbcf0d220	-0.02939707
119	0xbbbf89e9	-0.0058452976
120	0x3cb9a82a	0.022663195
121	0xbc1acd4a	-0.009448359
122	0xbc3f0e01	-0.011661054
123	0xbd1a9b39	-0.037745688
124	0xbd1f0972	-0.038827367
125	0x3c23cba5	0.009997283
126	0x3c36c93c	0.011156376
127	0xbba6fb63	-0.0050958856

gnn.convs.1.lin.weight f4 [128, 128]
0	0x3dd0fe97	0.10204809
1	0xbdb3ef21	-0.087858446
2	0x3d9c7b06	0.07640652
3	0xbdee2130	-0.11627424
4	0x3d46d5c9	0.048543725
5	0xbd91a205	-0.07110981
6	0x3c4407f8	0.0119647905
7	0x3ddc7998	0.1076538
8	0xbe144a09	-0.14481367
9	0xbdc72221	-0.097233064
10	0xbe5bb33a	-0.21455088
11	0xbc564d9b	-0.013080026
12	0xbda9e202	-0.08295061
13	0x3ccd8e04	0.025092132
14	0x3e5429c1	0.20719053
15	0xbd6b384c	-0.057426736
16	0xbe1ff778	-0.15621746
17	0xbcfd4a59	-0.03091924
18	0xbc4016db	-0.011724199
19	0x3e0220ea	0.12707868
20	0xbd9b11e9	-0.075717755
21	0x3e6ea050	0.23303342
22	0xbdd7756b	-0.105204426
23	0x3e1ed4d2	0.15510872
24	0x3e883bbc	0.26608074
25	0x3de3973f	0.11112832
26	0xbcad9fe0	-0.021194398
27	0x3e1cefe0	0.1532588
28	0xbe25bdcf	-0.16185687
29	0xbe1cb93d	-0.15305038
30	0xbe34d201	-0.17658235
31	0xbe127ecf	-0.14306186
32	0xbe739b7a	-0.23789778
33	0x3e0a6a0c	0.13517016
34	0xbd07b128	-0.033127934
35	0xbddf6a51	-0.1090895
36	0x3e5171b7	0.20453535
37	0x3de53365	0.11191443
38	0x3c4d7809	0.012540826
39	0x3e2a6ddb	0.16643469
40	0x3d7d600b	0.06185917
41	0xbdb46b3f	-0.08809518
42	0x3d964116	0.07336633
43	0xbd5911dc	-0.052995548
44	0x3d42c5e5	0.04755201
45	0x3c1ebb38	0.009688191
46	0xbe113393	-0.1417983
47	0x3c5c872e	0.013459964
48	0x3d012cf0	0.031536996
49	0x3e0237f3	0.12716655
50	0xbd7c3673	-0.061575364
51	0xbddb088b	-0.10694989
52	0x3d834f83	0.0641165
53	0xbe2bdc43	-0.16783242
54	0xbce29a53	-0.027661478
55	0x3da95239	0.08267636
56	0x3d807a3f	0.062733166
57	0xbd20951e	-0.03920471
58	0x3e280198	0.16406858
59	0xbddef074	-0.108857065
60	0xbe91e907	-0.28498098
61	0xbe03bcc8	-0.12864983
62	0x3d4880e6	0.048951052
63	0x3e0b88a5	0.13626345
64	0x3c8e91c4	0.01740349
65	0x3e0157d4	0.1263116
66	0x3e203e3f	0.15648745
67	0x3c474778	0.012163036
68	0x3dbb96f6	0.09159653
69	0xbd6fe684	-0.058569446
70	0x3e4b9906	0.19882593
71	0xbd1c7238	-0.038194865
72	0x3ceeb0bf	0.029137013
73	0x3dab26ec	0.08357033
74	0x3d9624a1	0.07331205
75	0xbdaf2177	-0.08551305
76	0xbdf0adba	-0.11751886
77	0xbe17343d	-0.14766021
78	0x3e0352cd	0.12824555
79	0xbe33f856	-0.17575201
80	0x3d7ba2e8	0.061434656
81	0x3dc4b24a	0.096043184
82	0xbde1e6da	-0.110303596
83	0xbdbb7807	-0.09153753
84	0x3b0e5ab0	0.0021721534
85	0xbc5ca1d9	-0.013466322
86	0x3d32dcb2	0.043667503
87	0x3d15651b	0.036473375
88	0xbe4fa01e	-0.20275924
89	0x3e051538	0.12996376
90	0xbe304c5b	-0.17216627
91	0x3c9ee540	0.019396424
92	0x3d57ed9f	0.052716848
93	0xbdd271cf	-0.102756135
94	0x3e6085bc	0.21926016
95	0x3cef8448	0.029237881
96	0xbd45d01b	-0.048294168
97	0x3d514d1d	0.05109893
98	0x3dfe9844	0.12431386
99	0x3d50ea2d	0.051004577
100	0xbdbb49e8	-0.09144956
101	0x3e39f1cd	0.18158646
102	0x3d0fe39b	0.03512917
103	0xbde06fe6	-0.10958843
104	0x3e1238b9	0.1427945
105	0xbbc289a1	-0.005936817
106	0x3d241966	0.040063284
107	0x3de8ffe7	0.113769345
108	0xbe1aa582	-0.15102199
109	0xbdfa1622	-0.12211253
110	0x3e1260c5	0.14294727
111	0xbe28b6a4	-0.16475922
112	0x3dfd2a54	0.12361589
113	0x3d9466ef	0.072461955
114	0x3e2470ee	0.16058704
115	0xbc731989	-0.014837631
116	0xbda7e907	-0.08198743
117	0xbdf078dc	-0.11741802
118	0xbe6eccb9	-0.23320283
119	0xbd60f141	-0.054917578
120	0x3e751edf	0.23937558
121	0xbd4129e1	-0.04715908
122	0xbe331de6	-0.17491874
123	0x3df3acc8	0.1189819
124	0xbcbc959f	-0.023020564
125	0xbd96bdcf	-0.07360422
126	0x3ca9234b	0.020646712
127	0xbd83240d	-0.064033605
128	0x3db7d701	0.089765556
129	0xbe12c637	-0.14333425
130	0x3e264a64	0.16239315
131	0x3d1f58ea	0.038903154
132	0xbd5c17aa	-0.053733505
133	0x3d9e4d71	0.077296145
134	0x3d9c6615	0.07636658
135	0x3dd0f72a	0.10203393
136	0x3cf998ed	0.030468429
137	0xbdfaa98a	-0.12239368
138	0x3e2e2835	0.17007525
139	0x3e0275f7	0.12740313
140	0xbdf61775	-0.12016193
141	0xbe03da20	-0.12876177
142	0x3dc8cd06	0.0980473
143	0xbe190b55	-0.14945729
144	0x3d9f0974	0.07765475
145	0xbdc1b9f0	-0.09459293
146	0x3da2826a	0.07935031
147	0xbe23a97e	-0.15982625
148	0x3e37267b	0.17885773
149	0x3e29a1b1	0.16565587
150	0x3d5a14a3	0.053242337
151	0x3d41b43c	0.047291026
152	0x3dfe9072	0.124298945
153	0x3df6d337	0.12052005
154	0x3e2e44fe	0.17018506
155	0x3e3e7084	0.18597609
156	0x3d589eff	0.052886005
157	0x3e2665e1	0.16249801
158	0xbdc0aca2	-0.09407927
159	0xbcfe86c5	-0.031070122
160	0xbe56b466	-0.20967254
161	0x3d940f0a	0.07229431
162	0x3dbcb712	0.092146054
163	0xbb4cb355	-0.003123482
164	0x3abaf8a7	0.0014264778
165	0x3e02a6b3	0.12758903
166	0xbdfbdadf	-0.12297606
167	0x3d06c545	0.032902975
168	0x3d87e4be	0.06635426
169	0x3b5f5fbb	0.003408416
170	0x3d2c197f	0.042016502
171	0xbd984025	-0.074341096
172	0xbe2dc46b	-0.16969459
173	0xbdc44a5c	-0.095844954
174	0xbd164cfd	-0.036694515
175	0x3d6b2415	0.057407457
176	0xbe9c1db1	-0.30491403
177	0x3de2ddeb	0.11077484
178	0x3e1f5178	0.15558422
179	0x3dc0e8f7	0.094194345
180	0xbde373cc	-0.11106071
181	0x3caffb04	0.021481998
182	0xbc34e1c4	-0.011040155
183	0xbdf7f639	-0.1210751
184	0xbe14de28	-0.14537871
185	0x3ce62a98	0.028096482
186	0xbdb6c8dc	-0.0892503
187	0xbda62e6b	-0.08114322
188	0xbd869312	-0.0657102
189	0x3dd910c7	0.10598903
190	0xbe1d1043	-0.15338235
191	0xbe208a40	-0.15677738
192	0xbe16f65e	-0.14742419
193	0x3e00cc90	0.12578034
194	0xbde49788	-0.11161715
195	0x3c2840d7	0.010269365
196	0x3d358bd6	0.04432281
197	0xbc6e6a4c	-0.01455171
198	0xbdb1bc9f	-0.08678555
199	0x3c52a24e	0.012856079
200	0xbe1a7a7a	-0.15085784
201	0xbe451fce	-0.19250414
202	0x3dcd91fa	0.100376084
203	0x3acd57c8	0.001566642
204	0xbe282cdc	-0.16423362
205	0xbcc0f486	-0.023554098
206	0x3d0a3856	0.033745132
207	0xbda31f9e	-0.07965015
208	0x3d4738e8	0.048638254
209	0xbe35d3b8	-0.17756546
210	0x3b902c96	0.0043998463
211	0xbda200f3	-0.07910337
212	0x3d928a62	0.07155301
213	0xbe1c2d23	-0.15251593
214	0x3de5717e	0.112032875
215	0x3c37aed8	0.01121112
216	0xbe32b01d	-0.17449994
217	0x3e6fbbdf	0.23411511
218	0xbc93a79d	-0.01802426
219	0x3c0420e4	0.008064482
220	0x3e7009a3	0.23441176
221	0x3e28ca46	0.16483411
222	0xbda42f95	-0.08016888
223	0xbb8ab410	-0.004232891
224	0xbdca1d70	-0.09868896
225	0x3e237628	0.15963042
226	0x3d0237f9	0.03179166
227	0xbcf72983	-0.030171162
228	0x3d5a4fb4	0.053298667
229	0x3d90c98c	0.07069692
230	0x3e090153	0.13379411
231	0xbe42705a	-0.18988171
232	0xbb3fe758	-0.0029282179
233	0xbdd5af47	-0.10433822
234	0x3de51f7c	0.11187646
235	0x3d7c20ab	0.061554592
236	0xbdcd7c53	-0.100334786
237	0x3d7089ba	0.058725096
238	0xbd6256a4	-0.05525841
239	0x3e47659d	0.19472356
240	0xbc552206	-0.0130086
241	0xbda0a799	-0.07844467
242	0xbd921bd1	-0.07134212
243	0x3942fdaa	0.00018595779
244	0x3de27ee4	0.11059359
245	0xbd3a6bd2	-0.04551298
246	0x3e264bff	0.16239928
247	0x3dff00ba	0.124513105
248	0x3dfcdd5b	0.12346908
249	0x3cb9fa9f	0.022702513
250	0xbd635ae5	-0.055506606
251	0x3def5389	0.11685855
252	0xbe11b6cc	-0.14229888
253	0xbd7a1536	-0.061055385
254	0x3d961276	0.0732774
255	0x3ddc2ae3	0.107503675

gnn.convs.2.att_src f4 [1, 4, 32]
0	0xbf19c95e	-0.60072887
1	0x3f311c2a	0.691836
2	0x3ee7716e	0.45203727
3	0xbcf0f6c2	-0.029414538
4	0x3cffcc5a	0.031225372
5	0x3e9978e4	0.29975045
6	0x3ec9d64a	0.39421302
7	0xbebbf946	-0.36713618
8	0x3ed992f9	0.42494944
9	0xbe1d7e17	-0.1538013
10	0xbcf39beb	-0.029737433
11	0x3e6a6cb0	0.22893023
12	0xbed2c220	-0.4116373
13	0x3e086629	0.13320221
14	0xbf18c04d	-0.5966843
15	0x3e96571b	0.2936333
16	0xbecb6eed	-0.39733067
17	0xbe9dbc77	-0.3080785
18	0x3d833186	0.0640593
19	0x3ed17d48	0.40915895
20	0x3bb71812	0.005587586
21	0x3e432727	0.19057904
22	0xbe1b36f3	-0.1515768
23	0xbf0609bd	-0.5235861
24	0xbeb83d3c	-0.35984218
25	0x3eceb945	0.40375724
26	0xbea43ccf	-0.32077643
27	0xbee7785b	-0.4520901
28	0xbecad954	-0.39618933
29	0x3ee45a67	0.44600222
30	0xbe96a917	-0.2942588
31	0x3e86bbe6	0.2631523
32	0xbcdaf7f4	-0.026729561
33	0xbbafb4cf	-0.0053621302
34	0x3ccdcbc4	0.025121577
35	0xbc0a6a4a	-0.008448193
36	0xbddb2581	-0.10700513
37	0xbe3c8515	-0.18410142
38	0xbeb5e402	-0.3552552
39	0x3d76170d	0.060080577
40	0x3d6dc38c	0.058047816
41	0x3e5b095c	0.21390289
42	0x3e82345a	0.25430566
43	0xbeaf978b	-0.34295306
44	0x3c82dd6e	0.015974727
45	0x3f1c66c0	0.61094284
46	0x3eb9b1d6	0.3626849
47	0x3eb74cb8	0.3580072
48	0xbe360448	-0.1777507
49	0x3edc0b0a	0.42977172
50	0xbe70204f	-0.23449825
51	0xbd3d1451	-0.046161953
52	0xbdc12287	-0.09430414
53	0xbe95dace	-0.29268497
54	0x3eb044bb	0.34427437
55	0x3eb9f1b1	0.36317208
56	0xbe143c97	-0.14476238
57	0x3c93a47d	0.01802277
58	0xbed23653	-0.4105707
59	0x3eff0a4b	0.4981254
60	0xbdb249b8	-0.08705467
61	0xbe813dc5	-0.2524244
62	0x3d6c7841	0.05773187
63	0xbeda27ab	-0.4260839
64	0xbec86a00	-0.39143372
65	0xbe98e246	-0.29860133
66	0xbe5e6c31	-0.21720959
67	0x3e08aa71	0.13346268
68	0xbecc36ab	-0.39885458
69	0x3ee477db	0.44622692
70	0x3d89a0aa	0.06720097
71	0x3f0472e5	0.51737815
72	0xbdfbb66b	-0.12290653
73	0x3eac81e0	0.33692837
74	0x3ead7b1c	0.33882987
75	0x3ec651e2	0.38734347
76	0x3d91e62c	0.0712398
77	0xbd13bc31	-0.036068145
78	0xbe8db0d3	-0.2767397
79	0x3e1cea43	0.15323739
80	0xbe8e8144	-0.27832997
81	0x3dfdcfb0	0.12393129
82	0xbe601a77	-0.21885096
83	0x3ecd4a7b	0.40095887
84	0xbdba1054	-0.090851456
85	0xbe22bcb9	-0.15892304
86	0x3d1e838a	0.038699664
87	0x3ef134e0	0.47110653
88	0x3e07ae0c	0.13249987
89	0x3e5be235	0.2147301
90	0xbe00b4bd	-0.12568946
91	0xbee533e0	-0.4476614
92	0x3ec72154	0.38892615
93	0xbe800d5f	-0.250102
94	0xbefd4603	-0.49467477
95	0x3d14b0cd	0.036301423
96	0xbe39b07a	-0.18133727
97	0xbec1c0a6	-0.37842292
98	0x3e556531	0.20839383
99	0x3e212837	0.15737997
100	0xbedb6dcd	-0.4285721
101	0xbd7426d4	-0.059607342
102	0x3eded12d	0.43518963
103	0xbeb4b7cb	-0.35296473
104	0x3daa4481	0.08313847
105	0xbea31c1b	-0.3185738
106	0xbbd9ae10	-0.0066430643
107	0xbe6f4436	-0.23365864
108	0x3d51d57f	0.051228996
109	0xbd1a83b8	-0.037723273
110	0x3db0e7ad	0.08637939
111	0x3c5e4306	0.013565784
112	0x3f06f756	0.52721155
113	0xbea1eaa6	-0.31624335
114	0xbedb9646	-0.42888087
115	0xbe033415	-0.12812836
116	0xbf0f3760	-0.5594387
117	0xbd54db7d	-0.051967133
118	0xbe4e30a1	-0.20135738
119	0x3e5228e7	0.20523416
120	0xbf13fb6c	-0.57805514
121	0x3dea6b37	0.11446231
122	0x3e910cab	0.28329977
123	0x3ddd9b7b	0.10820671
124	0xbedf23b3	-0.43581924
125	0x3ef673c1	0.48135188
126	0xbced3994	-0.02895812
127	0xbe099e07	-0.13439189

gnn.convs.2.att_dst f4 [1, 4, 32]
0	0x3ca98a93	0.02069596
1	0xbd73cedd	-0.059523452
2	0x3e45d955	0.19321187
3	0x3cd45579	0.025919663
4	0x3e8143f8	0.2524717
5	0x3ebdc4ec	0.37064302
6	0x3eb702f1	0.35744432
7	0xbe7f564c	-0.24935263
8	0x3eaf856a	0.34281474
9	0x3e648dd6	0.22319731
10	0x3d11e3ac	0.035617515
11	0xbe605435	-0.21907122
12	0x3dd8a099	0.105775066
13	0x3e5460a3	0.20739989
14	0xbd135341	-0.03596807
15	0xbe616d1e	-0.22014281
16	0xbe15d408	-0.14631665
17	0x3dfa6404	0.12226108
18	0x3e49bd23	0.19701056
19	0x3e7a7989	0.24460424
20	0xbe4f364c	-0.20235556
21	0xbd60ee9c	-0.054915056
22	0xbd593079	-0.053024743
23	0x3efb90ed	0.49134007
24	0x3e16630e	0.14686224
25	0x3dae2cfd	0.085046746
26	0x3e78b81c	0.24288982
27	0x3e8c74b7	0.27432796
28	0x3e4a5056	0.19757208
29	0xbccfa019	-0.025344895
30	0x3e71d099	0.2361473
31	0xbdefb04d	-0.117035486
32	0xbe3149dd	-0.17313333
33	0x3df28a70	0.11842811
34	0x3d64167c	0.055685505
35	0x3de53989	0.111926146
36	0xbe4537ff	-0.19259642
37	0xbe90fb88	-0.28316903
38	0xbeace842	-0.3377095
39	0xbe501059	-0.20318736
40	0x3e2b5d84	0.16734892
41	0xbe4e9b79	-0.20176496
42	0xbe829d3a	-0.2551058
43	0x3e5b6adb	0.21427481
44	0x3eb75152	0.3580423
45	0x3d1afc8b	0.0378385
46	0x3e538293	0.20655279
47	0x3e8999aa	0.2687505
48	0xbe25efe8	-0.16204798
49	0x3e8ed7b3	0.2789894
50	0xbe94b4c0	-0.2904415
51	0xbe5c6953	-0.21524553
52	0x3e796e10	0.24358392
53	0xbeec1e9c	-0.46117103
54	0xbeac7344	-0.3368169
55	0x3e56ec9d	0.20988698
56	0x3e643eea	0.22289625
57	0x3e437fff	0.19091795
58	0xbe6d63a7	-0.23182546
59	0x3cfd4ad7	0.030919475
60	0xbddae4c7	-0.10688167
61	0xbdfb7194	-0.12277523
62	0x3d980901	0.07423592
63	0xbd71b430	-0.05900973
64	0xbe8ceb5e	-0.2752332
65	0xbe6cda46	-0.2313014
66	0x3e8ef9e4	0.27925026
67	0xbe49f19b	-0.19721071
68	0x3e40ea44	0.18839365
69	0x3e6a6dee	0.22893497
70	0x3e2b6e13	0.16741209
71	0x3d5b83c7	0.05359247
72	0xbdd355cb	-0.10319098
73	0x3e67e50f	0.22645973
74	0xbe8fd6ac	-0.2809347
75	0xbe9769b1	-0.29572824
76	0xbea0d4a1	-0.31412223
77	0x3e85a7d5	0.26104608
78	0xbe04faec	-0.12986344
79	0x3e69bc7d	0.22825809
80	0xbdeed813	-0.11662307
81	0x3dc058ca	0.09391935
82	0x3e2fa845	0.17154033
83	0xbec10d57	-0.3770549
84	0xbdf1d43b	-0.11808058
85	0xbec0272d	-0.3752989
86	0xbc8b85e5	-0.01703162
87	0xbea01349	-0.31264713
88	0x3e8ba370	0.2727313
89	0x3e35a7a7	0.17739736
90	0x3e0efb86	0.13963136
91	0xbe588583	-0.2114468
92	0x3ed87312	0.42275292
93	0x3dd9f7a2	0.10642935
94	0xbeea3f76	-0.45751542
95	0xbe80c00d	-0.25146523
96	0xbee905ba	-0.45512182
97	0x3e8de17e	0.277111
98	0x3e2d742a	0.16938844
99	0x3d2eb183	0.042649757
100	0xbe64367a	-0.22286406
101	0x3e354980	0.1770382
102	0x3e59cb40	0.2126894
103	0x3dce48fd	0.10072515
104	0x3e95d5ab	0.29264578
105	0x3e21b7cf	0.15792774
106	0x3f005bd9	0.5014015
107	0x3ead8fb7	0.33898708
108	0x3ec61aea	0.3869241
109	0x3e037112	0.12836102
110	0xbe8d4a30	-0.27595663
111	0xbe975d0a	-0.2956317
112	0x3d54261e	0.051794164
113	0x3e7c40ca	0.2463409
114	0xbe346b11	-0.17618968
115	0xbeed110b	-0.46302065
116	0x3e0f91a5	0.14020403
117	0x3d7da4bf	0.061924692
118	0x3d6da2de	0.05801665
119	0xbcf532ef	-0.029931514
120	0x3e76ddc6	0.24108037
121	0xbd6902f9	-0.0568876
122	0x3e04cc91	0.12968661
123	0xbe30c6cc	-0.17263335
124	0xbe017501	-0.1264229
125	0xbea73981	-0.3266106
126	0xbd394b9e	-0.04523813
127	0xbdfbee28	-0.12301284

gnn.convs.2.bias f4 [128]
0	0xbcf570c6	-0.029961001
1	0x3d20f2eb	0.039294165
2	0xbbbd9cf6	-0.0057865335
3	0x3b8547dd	0.0040674047
4	0x3c4f9cd9	0.012671673
5	0x3cbdacf1	0.023153754
6	0x3ce239c9	0.027615445
7	0xbc007127	-0.007839478
8	0x3b5a03ed	0.00332665
9	0xbc1f1160	-0.009708732
10	0x3c834643	0.016024714
11	0xbccd9b62	-0.025098506
12	0x3cf1dee6	0.029525232
13	0xbb9afc4a	-0.004729782
14	0x3b9c99a1	0.004779056
15	0xbccb113d	-0.024788493
16	0xbc069e54	-0.008216459
17	0x3d2c8778	0.04212138
18	0x3d2c3bd9	0.042049263
19	0xb984334d	-0.00025215224
20	0x3c708487	0.0146800345
21	0xbcfec900	-0.031101704
22	0xbd04585f	-0.03231084
23	0xbc074c15	-0.008257885
24	0xbd1d15a3	-0.038350713
25	0x3c8137ac	0.015773617
26	0x3c1920c0	0.009346187
27	0xbc30f879	-0.010801428
28	0x3d1cd344	0.038287416
29	0xbca18a2e	-0.01971921
30	0xbd56c678	-0.05243537
31	0xbcd0cca8	-0.025488213
32	0x3c77e3ac	0.015129965
33	0xbce8047c	-0.02832245
34	0x3bdbf6e2	0.0067127803
35	0x3c9da724	0.019244738
36	0xbd23034e	-0.039798073
37	0xbc17adb5	-0.009257724
38	0xbd3974e4	-0.04527749
39	0x3d43b8fb	0.047783833
40	0x3c4ea396	0.012612244
41	0xbaa066a3	-0.0012237619
42	0xbc613e07	-0.013747699
43	0xbc836191	-0.016037734
44	0x3d2932c3	0.041308176
45	0xbd33bbb9	-0.0438802
46	0x3a835d14	0.0010022246
47	0xbd3813f4	-0.044940904
48	0xbd2fb4db	-0.042897087
49	0x3cabf527	0.020990921
50	0x3c3326db	0.010934557
51	0xbcbf6326	-0.023362707
52	0xbce08c45	-0.027410636
53	0xbc012657	-0.007882676
54	0xbd09ccc4	-0.033642545
55	0x3cce7b5e	0.02520531
56	0x3ce222c0	0.02760446
57	0xbc552c33	-0.013011026
58	0xbcdbb0a5	-0.02681763
59	0xbcced058	-0.02524583
60	0xbc329c45	-0.010901515
61	0x3cb31f2e	0.021865454
62	0xbc43fbb0	-0.011961862
63	0x3d06fc81	0.03295565
64	0x3ce0614f	0.02739015
65	0x3c7791d4	0.015110452
66	0x3ca8bb6f	0.020597188
67	0x3bab770f	0.0052326987
68	0xbd2e95d7	-0.042623367
69	0x3cc1c390	0.023652822
70	0xbb2fea08	-0.0026842374
71	0xbcb25fbe	-0.021774169
72	0xbb9b9bbd	-0.00474879
73	0x3c98c6a9	0.018649416
74	0x3b349bd3	0.0027558699
75	0x3cdd017c	0.026978247
76	0x3c977ea9	0.018493013
77	0x3ca6fbf9	0.020383822
78	0x3d10874b	0.035285275
79	0x3b6b8766	0.0035938858
80	0xbb1273c2	-0.002234683
81	0xbc085273	-0.008320439
82	0xbb16da7d	-0.0023018413
83	0x3d2322ff	0.039828297
84	0xbb89cd04	-0.004205348
85	0x3c9b6582	0.018969301
86	0x3c358c13	0.01108076
87	0x3d0ed242	0.034868486
88	0x3c99607a	0.018722761
89	0x3c023a4f	0.007948472
90	0x36034c26	1.9564845e-06
91	0xbca449f8	-0.020054802
92	0x3b7a5637	0.003819836
93	0x3d011b9f	0.031520482
94	0xbd2156f0	-0.03938955
95	0xbc337a31	-0.010954426
96	0xbc8d4a37	-0.017247302
97	0x3aaca146	0.0013170622
98	0x3c07b9ae	0.008284016
99	0x3c5187b0	0.012788698
100	0xbaa1ac03	-0.0012334589
101	0x3bf6cbe7	0.0075316313
102	0xbd489e62	-0.04897917
103	0xbba65775	-0.0050763437
104	0x3c56e6f8	0.013116591
105	0x3c73ca56	0.014879784
106	0x3b935e78	0.0044973455
107	0x3c541c16	0.012946149
108	0x3bf12954	0.007359663
109	0x3d442de4	0.047895327
110	0xbc8d57dc	-0.017253809
111	0xbc270d22	-0.010196002
112	0xb9b34a57	-0.00034196928
113	0xbd390d4e	-0.045178704
114	0xbba834ea	-0.005133261
115	0xbc9955b6	-0.018717628
116	0xbd28f7e5	-0.041252036
117	0x3b5a686d	0.0033326403
118	0xbd0da33c	-0.0345795
119	0x3c6a124c	0.014286589
120	0xbcab5c69	-0.020918088
121	0xbc86c8e6	-0.016453218
122	0xbd13566d	-0.035971094
123	0xbbbd3aec	-0.0057748463
124	0xbd17e713	-0.037085604
125	0x3c400dd7	0.01172205
126	0x3c511618	0.012761615
127	0x3c8362ad	0.016038263
